
Sequential(
  (0): Linear(in_features=330, out_features=1, bias=True)
)
k折:5  num_epochs:100  learning_rate:1  batch_size:64  weight_decay:0
5-折验证: 平均训练log rmse: 0.873144, 平均验证log rmse: 0.876731 


Sequential(
  (0): Linear(in_features=330, out_features=1, bias=True)
)
k折:5  num_epochs:100  learning_rate:5  batch_size:64  weight_decay:0
5-折验证: 平均训练log rmse: 0.165489, 平均验证log rmse: 0.170695 


Sequential(
  (0): Linear(in_features=330, out_features=256, bias=True)
  (1): ReLU()
  (2): Dropout(p=0.5, inplace=False)
  (3): Linear(in_features=256, out_features=64, bias=True)
  (4): ReLU()
  (5): Dropout(p=0.5, inplace=False)
  (6): Linear(in_features=64, out_features=1, bias=True)
)
k折:5  num_epochs:100  learning_rate:1  batch_size:64  weight_decay:5e-05
5-折验证: 平均训练log rmse: 1.044115, 平均验证log rmse: 1.122265 


Sequential(
  (0): Linear(in_features=330, out_features=256, bias=True)
  (1): ReLU()
  (2): Dropout(p=0.5, inplace=False)
  (3): Linear(in_features=256, out_features=64, bias=True)
  (4): ReLU()
  (5): Dropout(p=0.5, inplace=False)
  (6): Linear(in_features=64, out_features=1, bias=True)
)
k折:5  num_epochs:100  learning_rate:0.5  batch_size:64  weight_decay:5e-05
5-折验证: 平均训练log rmse: 0.504565, 平均验证log rmse: 0.506552 


Sequential(
  (0): Linear(in_features=330, out_features=64, bias=True)
  (1): ReLU()
  (2): Dropout(p=0.5, inplace=False)
  (3): Linear(in_features=64, out_features=1, bias=True)
)
k折:5  num_epochs:100  learning_rate:0.5  batch_size:64  weight_decay:0
5-折验证: 平均训练log rmse: 0.209874, 平均验证log rmse: 0.232839 


Sequential(
  (0): Linear(in_features=330, out_features=64, bias=True)
  (1): ReLU()
  (2): Dropout(p=0.6, inplace=False)
  (3): Linear(in_features=64, out_features=1, bias=True)
)
k折:5  num_epochs:100  learning_rate:0.5  batch_size:64  weight_decay:0
5-折验证: 平均训练log rmse: 0.239552, 平均验证log rmse: 0.266404 


Sequential(
  (0): Linear(in_features=330, out_features=64, bias=True)
  (1): ReLU()
  (2): Dropout(p=0.6, inplace=False)
  (3): Linear(in_features=64, out_features=1, bias=True)
)
k折:5  num_epochs:100  learning_rate:0.5  batch_size:64  weight_decay:0.0001
5-折验证: 平均训练log rmse: 0.248706, 平均验证log rmse: 0.272945 


Sequential(
  (0): Linear(in_features=330, out_features=64, bias=True)
  (1): ReLU()
  (2): Dropout(p=0.6, inplace=False)
  (3): Linear(in_features=64, out_features=1, bias=True)
)
k折:5  num_epochs:100  learning_rate:0.1  batch_size:64  weight_decay:0.0001
5-折验证: 平均训练log rmse: 0.225300, 平均验证log rmse: 0.248622 


Sequential(
  (0): Linear(in_features=330, out_features=1, bias=True)
)
k折:5  num_epochs:100  learning_rate:5  batch_size:64  weight_decay:1e-05
5-折验证: 平均训练log rmse: 0.165388, 平均验证log rmse: 0.170294 


Sequential(
  (0): Linear(in_features=330, out_features=1, bias=True)
)
k折:5  num_epochs:100  learning_rate:7  batch_size:64  weight_decay:1e-05
5-折验证: 平均训练log rmse: 0.159004, 平均验证log rmse: 0.167700 


Sequential(
  (0): Linear(in_features=330, out_features=1, bias=True)
)
k折:5  num_epochs:100  learning_rate:6  batch_size:64  weight_decay:0.0001
5-折验证: 平均训练log rmse: 0.163562, 平均验证log rmse: 0.170589 


Sequential(
  (0): Linear(in_features=330, out_features=1, bias=True)
)
k折:7  num_epochs:100  learning_rate:6  batch_size:64  weight_decay:0.0001
7-折验证: 平均训练log rmse: 0.162201, 平均验证log rmse: 0.168021 


Sequential(
  (0): Linear(in_features=330, out_features=1, bias=True)
)
k折:7  num_epochs:100  learning_rate:6  batch_size:64  weight_decay:0.0005
7-折验证: 平均训练log rmse: 0.162144, 平均验证log rmse: 0.168679 


Sequential(
  (0): Linear(in_features=330, out_features=1, bias=True)
)
k折:7  num_epochs:100  learning_rate:6  batch_size:128  weight_decay:0.0005
7-折验证: 平均训练log rmse: 0.193219, 平均验证log rmse: 0.196930 


Sequential(
  (0): Linear(in_features=330, out_features=1, bias=True)
)
k折:5  num_epochs:100  learning_rate:6  batch_size:128  weight_decay:0.0005
5-折验证: 平均训练log rmse: 0.194430, 平均验证log rmse: 0.198010 


Sequential(
  (0): Linear(in_features=330, out_features=1, bias=True)
)
k折:5  num_epochs:150  learning_rate:6  batch_size:64  weight_decay:0.0005
5-折验证: 平均训练log rmse: 0.146978, 平均验证log rmse: 0.156977 


Sequential(
  (0): Linear(in_features=330, out_features=1, bias=True)
)
k折:5  num_epochs:200  learning_rate:6  batch_size:64  weight_decay:0.0005
5-折验证: 平均训练log rmse: 0.136895, 平均验证log rmse: 0.149892 


Sequential(
  (0): Linear(in_features=330, out_features=1, bias=True)
)
k折:5  num_epochs:200  learning_rate:6  batch_size:64  weight_decay:0.001
5-折验证: 平均训练log rmse: 0.137046, 平均验证log rmse: 0.149943 



Sequential(
  (0): Linear(in_features=330, out_features=64, bias=True)
  (1): ReLU()
  (2): Dropout(p=0.6, inplace=False)
  (3): Linear(in_features=64, out_features=1, bias=True)
)
k折:5  num_epochs:100  learning_rate:0.05  batch_size:64  weight_decay:0.0005
5-折验证: 平均训练log rmse: 0.223422, 平均验证log rmse: 0.248556 


Sequential(
  (0): Linear(in_features=330, out_features=330, bias=True)
  (1): ReLU()
  (2): Dropout(p=0.5, inplace=False)
  (3): Linear(in_features=330, out_features=1, bias=True)
)
k折:5  num_epochs:100  learning_rate:0.05  batch_size:64  weight_decay:0.0005
5-折验证: 平均训练log rmse: 0.126753, 平均验证log rmse: 0.162464 


Sequential(
  (0): Linear(in_features=330, out_features=330, bias=True)
  (1): ReLU()
  (2): Dropout(p=0.5, inplace=False)
  (3): Linear(in_features=330, out_features=1, bias=True)
)
k折:5  num_epochs:100  learning_rate:0.05  batch_size:64  weight_decay:0.001
5-折验证: 平均训练log rmse: 0.129524, 平均验证log rmse: 0.163017 


Sequential(
  (0): Linear(in_features=330, out_features=330, bias=True)
  (1): ReLU()
  (2): Dropout(p=0.7, inplace=False)
  (3): Linear(in_features=330, out_features=1, bias=True)
)
k折:5  num_epochs:100  learning_rate:0.05  batch_size:64  weight_decay:0.0005
5-折验证: 平均训练log rmse: 0.149232, 平均验证log rmse: 0.183192 


Sequential(
  (0): Linear(in_features=330, out_features=330, bias=True)
  (1): ReLU()
  (2): Dropout(p=0.5, inplace=False)
  (3): Linear(in_features=330, out_features=1, bias=True)
)
k折:5  num_epochs:100  learning_rate:0.05  batch_size:64  weight_decay:0.0005
5-折验证: 平均训练log rmse: 0.126812, 平均验证log rmse: 0.166086 


Sequential(
  (0): Linear(in_features=330, out_features=330, bias=True)
  (1): ReLU()
  (2): Dropout(p=0.5, inplace=False)
  (3): Linear(in_features=330, out_features=1, bias=True)
)
k折:5  num_epochs:100  learning_rate:0.02  batch_size:64  weight_decay:0.0005
5-折验证: 平均训练log rmse: 0.138838, 平均验证log rmse: 0.159405 


Sequential(
  (0): Linear(in_features=330, out_features=330, bias=True)
  (1): ReLU()
  (2): Dropout(p=0.5, inplace=False)
  (3): Linear(in_features=330, out_features=1, bias=True)
)
k折:5  num_epochs:100  learning_rate:0.07  batch_size:64  weight_decay:0.001
5-折验证: 平均训练log rmse: 0.119149, 平均验证log rmse: 0.161716 


Sequential(
  (0): Linear(in_features=330, out_features=330, bias=True)
  (1): ReLU()
  (2): Dropout(p=0.7, inplace=False)
  (3): Linear(in_features=330, out_features=1, bias=True)
)
k折:5  num_epochs:100  learning_rate:0.07  batch_size:64  weight_decay:0.001
5-折验证: 平均训练log rmse: 0.150662, 平均验证log rmse: 0.184176 


Sequential(
  (0): Linear(in_features=330, out_features=330, bias=True)
  (1): ReLU()
  (2): Dropout(p=0.4, inplace=False)
  (3): Linear(in_features=330, out_features=1, bias=True)
)
k折:5  num_epochs:100  learning_rate:0.07  batch_size:64  weight_decay:0.001
5-折验证: 平均训练log rmse: 0.113751, 平均验证log rmse: 0.161758 


Sequential(
  (0): Linear(in_features=330, out_features=330, bias=True)
  (1): ReLU()
  (2): Dropout(p=0.4, inplace=False)
  (3): Linear(in_features=330, out_features=1, bias=True)
)
k折:5  num_epochs:100  learning_rate:0.1  batch_size:64  weight_decay:0.01
5-折验证: 平均训练log rmse: 0.105690, 平均验证log rmse: 0.155367 


Sequential(
  (0): Linear(in_features=330, out_features=330, bias=True)
  (1): ReLU()
  (2): Dropout(p=0.5, inplace=False)
  (3): Linear(in_features=330, out_features=1, bias=True)
)
k折:5  num_epochs:100  learning_rate:0.1  batch_size:64  weight_decay:0.01
5-折验证: 平均训练log rmse: 0.117766, 平均验证log rmse: 0.159681 


Sequential(
  (0): Linear(in_features=330, out_features=330, bias=True)
  (1): ReLU()
  (2): Dropout(p=0.5, inplace=False)
  (3): Linear(in_features=330, out_features=1, bias=True)
)
k折:5  num_epochs:25  learning_rate:0.1  batch_size:64  weight_decay:0.01
5-折验证: 平均训练log rmse: 0.137539, 平均验证log rmse: 0.157830 


Sequential(
  (0): Linear(in_features=330, out_features=330, bias=True)
  (1): ReLU()
  (2): Dropout(p=0.5, inplace=False)
  (3): Linear(in_features=330, out_features=1, bias=True)
)
k折:5  num_epochs:100  learning_rate:0.1  batch_size:64  weight_decay:0.1
5-折验证: 平均训练log rmse: 0.115300, 平均验证log rmse: 0.162509 


Sequential(
  (0): Linear(in_features=330, out_features=330, bias=True)
  (1): ReLU()
  (2): Dropout(p=0.5, inplace=False)
  (3): Linear(in_features=330, out_features=1, bias=True)
)
k折:5  num_epochs:100  learning_rate:0.1  batch_size:64  weight_decay:1
5-折验证: 平均训练log rmse: 0.117051, 平均验证log rmse: 0.156947 


Sequential(
  (0): Linear(in_features=330, out_features=330, bias=True)
  (1): ReLU()
  (2): Dropout(p=0.5, inplace=False)
  (3): Linear(in_features=330, out_features=1, bias=True)
)
k折:5  num_epochs:100  learning_rate:0.1  batch_size:64  weight_decay:5
5-折验证: 平均训练log rmse: 0.108540, 平均验证log rmse: 0.153755 


Sequential(
  (0): Linear(in_features=330, out_features=330, bias=True)
  (1): ReLU()
  (2): Dropout(p=0.5, inplace=False)
  (3): Linear(in_features=330, out_features=1, bias=True)
)
k折:5  num_epochs:100  learning_rate:0.1  batch_size:64  weight_decay:10
5-折验证: 平均训练log rmse: 0.109465, 平均验证log rmse: 0.157581 


Sequential(
  (0): Linear(in_features=330, out_features=8, bias=True)
  (1): ReLU()
  (2): Dropout(p=0.5, inplace=False)
  (3): Linear(in_features=8, out_features=1, bias=True)
)
k折:5  num_epochs:100  learning_rate:0.1  batch_size:64  weight_decay:0.001
5-折验证: 平均训练log rmse: 1.022597, 平均验证log rmse: 0.954399 


Sequential(
  (0): Linear(in_features=330, out_features=64, bias=True)
  (1): Dropout(p=0.5, inplace=False)
  (2): Linear(in_features=64, out_features=1, bias=True)
)
k折:5  num_epochs:100  learning_rate:0.1  batch_size:64  weight_decay:0
5-折验证: 平均训练log rmse: 0.178614, 平均验证log rmse: 0.208780 


Sequential(
  (0): Linear(in_features=330, out_features=512, bias=True)
  (1): ReLU()
  (2): Dropout(p=0.5, inplace=False)
  (3): Linear(in_features=512, out_features=1, bias=True)
)
k折:5  num_epochs:100  learning_rate:0.1  batch_size:64  weight_decay:0
5-折验证: 平均训练log rmse: 0.101580, 平均验证log rmse: 0.154110 


Sequential(
  (0): Linear(in_features=330, out_features=512, bias=True)
  (1): ReLU()
  (2): Dropout(p=0.5, inplace=False)
  (3): Linear(in_features=512, out_features=1, bias=True)
)
k折:5  num_epochs:100  learning_rate:0.1  batch_size:64  weight_decay:0.001
5-折验证: 平均训练log rmse: 0.102152, 平均验证log rmse: 0.151111 


Sequential(
  (0): Linear(in_features=330, out_features=512, bias=True)
  (1): ReLU()
  (2): Dropout(p=0.7, inplace=False)
  (3): Linear(in_features=512, out_features=1, bias=True)
)
k折:5  num_epochs:100  learning_rate:0.1  batch_size:64  weight_decay:0.01
5-折验证: 平均训练log rmse: 0.130707, 平均验证log rmse: 0.169536 


Sequential(
  (0): Linear(in_features=330, out_features=1024, bias=True)
  (1): ReLU()
  (2): Dropout(p=0.5, inplace=False)
  (3): Linear(in_features=1024, out_features=1, bias=True)
)
k折:5  num_epochs:100  learning_rate:0.1  batch_size:64  weight_decay:0.001
5-折验证: 平均训练log rmse: 0.085238, 平均验证log rmse: 0.144256 


Sequential(
  (0): Linear(in_features=330, out_features=1, bias=True)
)
k折:5  num_epochs:250  learning_rate:6  batch_size:64  weight_decay:0.005
5-折验证: 平均训练log rmse: 0.131331, 平均验证log rmse: 0.147517 


Sequential(
  (0): Linear(in_features=330, out_features=64, bias=True)
  (1): ReLU()
  (2): Dropout(p=0.5, inplace=False)
  (3): Linear(in_features=64, out_features=1, bias=True)
)
k折:5  num_epochs:100  learning_rate:0.1  batch_size:64  weight_decay:0.001
5-折验证: 平均训练log rmse: 0.194725, 平均验证log rmse: 0.225198 


Sequential(
  (0): Linear(in_features=330, out_features=512, bias=True)
  (1): ReLU()
  (2): Dropout(p=0.5, inplace=False)
  (3): Linear(in_features=512, out_features=1, bias=True)
)
k折:5  num_epochs:100  learning_rate:0.1  batch_size:64  weight_decay:0.001
5-折验证: 平均训练log rmse: 0.103305, 平均验证log rmse: 0.153075 


Sequential(
  (0): Linear(in_features=330, out_features=512, bias=True)
  (1): ReLU()
  (2): Dropout(p=0.5, inplace=False)
  (3): Linear(in_features=512, out_features=1, bias=True)
)
k折:5  num_epochs:100  learning_rate:0.1  batch_size:64  weight_decay:0.001
5-折验证: 平均训练log rmse: 0.106343, 平均验证log rmse: 0.153651 


Sequential(
  (0): Linear(in_features=330, out_features=512, bias=True)
  (1): ReLU()
  (2): Dropout(p=0.5, inplace=False)
  (3): Linear(in_features=512, out_features=1, bias=True)
)
k折:5  num_epochs:100  learning_rate:0.1  batch_size:64  weight_decay:0.001
5-折验证: 平均训练log rmse: 0.102557, 平均验证log rmse: 0.153313 


Sequential(
  (0): Linear(in_features=330, out_features=512, bias=True)
  (1): ReLU()
  (2): Dropout(p=0.5, inplace=False)
  (3): Linear(in_features=512, out_features=1, bias=True)
)
k折:5  num_epochs:100  learning_rate:0.1  batch_size:64  weight_decay:0.001
5-折验证: 平均训练log rmse: 0.102633, 平均验证log rmse: 0.154115 


Sequential(
  (0): Linear(in_features=330, out_features=512, bias=True)
  (1): ReLU()
  (2): Dropout(p=0.5, inplace=False)
  (3): Linear(in_features=512, out_features=1, bias=True)
)
k折:5  num_epochs:100  learning_rate:0.1  batch_size:64  weight_decay:0.1
5-折验证: 平均训练log rmse: 0.154082, 平均验证log rmse: 0.156207 


Sequential(
  (0): Linear(in_features=330, out_features=512, bias=True)
  (1): ReLU()
  (2): Dropout(p=0.5, inplace=False)
  (3): Linear(in_features=512, out_features=1, bias=True)
)
k折:5  num_epochs:100  learning_rate:0.1  batch_size:64  weight_decay:0.01
5-折验证: 平均训练log rmse: 0.100222, 平均验证log rmse: 0.152664 


Sequential(
  (0): Linear(in_features=330, out_features=256, bias=True)
  (1): ReLU()
  (2): Dropout(p=0.5, inplace=False)
  (3): Linear(in_features=256, out_features=1, bias=True)
)
k折:5  num_epochs:100  learning_rate:0.1  batch_size:64  weight_decay:0.001
5-折验证: 平均训练log rmse: 0.128588, 平均验证log rmse: 0.172017 


Sequential(
  (0): Linear(in_features=330, out_features=512, bias=True)
  (1): ReLU()
  (2): Dropout(p=0.5, inplace=False)
  (3): Linear(in_features=512, out_features=1, bias=True)
)
k折:5  num_epochs:100  learning_rate:0.1  batch_size:64  weight_decay:0.001
5-折验证: 平均训练log rmse: 0.098858, 平均验证log rmse: 0.154424 


Sequential(
  (0): Linear(in_features=330, out_features=512, bias=True)
  (1): ReLU()
  (2): Dropout(p=0.5, inplace=False)
  (3): Linear(in_features=512, out_features=1, bias=True)
)
k折:5  num_epochs:100  learning_rate:0.1  batch_size:64  weight_decay:0.01
5-折验证: 平均训练log rmse: 0.099754, 平均验证log rmse: 0.152820 


block(
  (final): Linear(in_features=2, out_features=1, bias=True)
)
k折:5  num_epochs:100  learning_rate:0.1  batch_size:64  weight_decay:0.01
5-折验证: 平均训练log rmse: 6.637831, 平均验证log rmse: 6.638234 


block(
  (final): Linear(in_features=2, out_features=1, bias=True)
)
k折:5  num_epochs:100  learning_rate:7  batch_size:64  weight_decay:0
5-折验证: 平均训练log rmse: 2.487312, 平均验证log rmse: 2.507760 


block(
  (final): Linear(in_features=3, out_features=1, bias=True)
)
k折:5  num_epochs:100  learning_rate:7  batch_size:64  weight_decay:0
5-折验证: 平均训练log rmse: 12.030679, 平均验证log rmse: 12.030666 


block(
  (final): Linear(in_features=3, out_features=1, bias=True)
)
k折:5  num_epochs:100  learning_rate:7  batch_size:64  weight_decay:0
5-折验证: 平均训练log rmse: 2.367020, 平均验证log rmse: 2.342992 


block(
  (final): Linear(in_features=10, out_features=1, bias=True)
)
k折:5  num_epochs:100  learning_rate:7  batch_size:64  weight_decay:0
5-折验证: 平均训练log rmse: 2.433231, 平均验证log rmse: 2.346140 


block(
  (final): Linear(in_features=10, out_features=1, bias=False)
)
k折:5  num_epochs:100  learning_rate:10  batch_size:64  weight_decay:0
5-折验证: 平均训练log rmse: 4.053552, 平均验证log rmse: 4.069764 


block(
  (final): Linear(in_features=10, out_features=1, bias=False)
)
k折:5  num_epochs:200  learning_rate:7  batch_size:64  weight_decay:0
5-折验证: 平均训练log rmse: 3.918237, 平均验证log rmse: 3.888324 


block(
  (final): Linear(in_features=10, out_features=1, bias=False)
)
k折:5  num_epochs:200  learning_rate:5  batch_size:64  weight_decay:0
5-折验证: 平均训练log rmse: 4.129983, 平均验证log rmse: 4.087596 


block(
  (final): Linear(in_features=10, out_features=1, bias=True)
)
k折:5  num_epochs:100  learning_rate:5  batch_size:64  weight_decay:0
5-折验证: 平均训练log rmse: 2.182529, 平均验证log rmse: 2.183158 


block(
  (final): Linear(in_features=10, out_features=1, bias=True)
)
(Sequential(
  (0): Linear(in_features=330, out_features=1, bias=True)
), Sequential(
  (0): Linear(in_features=330, out_features=1, bias=True)
), Sequential(
  (0): Linear(in_features=330, out_features=1, bias=True)
), Sequential(
  (0): Linear(in_features=330, out_features=1, bias=True)
), Sequential(
  (0): Linear(in_features=330, out_features=1, bias=True)
), Sequential(
  (0): Linear(in_features=330, out_features=128, bias=True)
  (1): ReLU()
  (2): Dropout(p=0.5, inplace=False)
  (3): Linear(in_features=128, out_features=1, bias=True)
), Sequential(
  (0): Linear(in_features=330, out_features=4, bias=True)
  (1): ReLU()
  (2): Dropout(p=0.5, inplace=False)
  (3): Linear(in_features=4, out_features=1, bias=True)
), Sequential(
  (0): Linear(in_features=330, out_features=16, bias=True)
  (1): ReLU()
  (2): Dropout(p=0.5, inplace=False)
  (3): Linear(in_features=16, out_features=1, bias=True)
), Sequential(
  (0): Linear(in_features=330, out_features=16, bias=True)
  (1): ReLU()
  (2): Dropout(p=0.5, inplace=False)
  (3): Linear(in_features=16, out_features=1, bias=True)
), Sequential(
  (0): Linear(in_features=330, out_features=32, bias=True)
  (1): ReLU()
  (2): Dropout(p=0.5, inplace=False)
  (3): Linear(in_features=32, out_features=1, bias=True)
))k折:5  num_epochs:150  learning_rate:7  batch_size:64  weight_decay:0
5-折验证: 平均训练log rmse: 1.459817, 平均验证log rmse: 1.422182 


block(
  (final): Linear(in_features=10, out_features=1, bias=True)
)
(Sequential(
  (0): Linear(in_features=330, out_features=1, bias=True)
), Sequential(
  (0): Linear(in_features=330, out_features=1, bias=True)
), Sequential(
  (0): Linear(in_features=330, out_features=1, bias=True)
), Sequential(
  (0): Linear(in_features=330, out_features=1, bias=True)
), Sequential(
  (0): Linear(in_features=330, out_features=1, bias=True)
), Sequential(
  (0): Linear(in_features=330, out_features=64, bias=True)
  (1): ReLU()
  (2): Dropout(p=0.5, inplace=False)
  (3): Linear(in_features=64, out_features=1, bias=True)
), Sequential(
  (0): Linear(in_features=330, out_features=512, bias=True)
  (1): ReLU()
  (2): Dropout(p=0.5, inplace=False)
  (3): Linear(in_features=512, out_features=1, bias=True)
), Sequential(
  (0): Linear(in_features=330, out_features=64, bias=True)
  (1): ReLU()
  (2): Dropout(p=0.5, inplace=False)
  (3): Linear(in_features=64, out_features=1, bias=True)
), Sequential(
  (0): Linear(in_features=330, out_features=8, bias=True)
  (1): ReLU()
  (2): Dropout(p=0.5, inplace=False)
  (3): Linear(in_features=8, out_features=1, bias=True)
), Sequential(
  (0): Linear(in_features=330, out_features=512, bias=True)
  (1): ReLU()
  (2): Dropout(p=0.5, inplace=False)
  (3): Linear(in_features=512, out_features=1, bias=True)
))k折:5  num_epochs:250  learning_rate:7  batch_size:64  weight_decay:0
5-折验证: 平均训练log rmse: 1.076410, 平均验证log rmse: 1.080092 


block(
  (final): Linear(in_features=5, out_features=1, bias=True)
)
(Sequential(
  (0): Linear(in_features=330, out_features=1, bias=True)
), Sequential(
  (0): Linear(in_features=330, out_features=1, bias=True)
), Sequential(
  (0): Linear(in_features=330, out_features=1, bias=True)
), Sequential(
  (0): Linear(in_features=330, out_features=1, bias=True)
), Sequential(
  (0): Linear(in_features=330, out_features=1, bias=True)
))k折:5  num_epochs:200  learning_rate:6  batch_size:64  weight_decay:0
5-折验证: 平均训练log rmse: 1.636924, 平均验证log rmse: 1.644861 


block(
  (nets): ModuleList(
    (0-4): 5 x Sequential(
      (0): Linear(in_features=330, out_features=1, bias=True)
    )
  )
)
ModuleList(
  (0-4): 5 x Sequential(
    (0): Linear(in_features=330, out_features=1, bias=True)
  )
)k折:5  num_epochs:200  learning_rate:6  batch_size:64  weight_decay:0
5-折验证: 平均训练log rmse: 0.137111, 平均验证log rmse: 0.150207 


block(
  (nets): ModuleList(
    (0-4): 5 x Sequential(
      (0): Linear(in_features=330, out_features=1, bias=True)
    )
    (5): Sequential(
      (0): Linear(in_features=330, out_features=128, bias=True)
      (1): ReLU()
      (2): Dropout(p=0.5, inplace=False)
      (3): Linear(in_features=128, out_features=1, bias=True)
    )
    (6): Sequential(
      (0): Linear(in_features=330, out_features=256, bias=True)
      (1): ReLU()
      (2): Dropout(p=0.5, inplace=False)
      (3): Linear(in_features=256, out_features=1, bias=True)
    )
    (7-8): 2 x Sequential(
      (0): Linear(in_features=330, out_features=128, bias=True)
      (1): ReLU()
      (2): Dropout(p=0.5, inplace=False)
      (3): Linear(in_features=128, out_features=1, bias=True)
    )
    (9): Sequential(
      (0): Linear(in_features=330, out_features=512, bias=True)
      (1): ReLU()
      (2): Dropout(p=0.5, inplace=False)
      (3): Linear(in_features=512, out_features=1, bias=True)
    )
  )
)
k折:5  num_epochs:200  learning_rate:6  batch_size:64  weight_decay:0
5-折验证: 平均训练log rmse: 0.152704, 平均验证log rmse: 0.163730 


block(
  (nets): ModuleList(
    (0-4): 5 x Sequential(
      (0): Linear(in_features=330, out_features=1, bias=True)
    )
    (5): Sequential(
      (0): Linear(in_features=330, out_features=128, bias=True)
      (1): ReLU()
      (2): Dropout(p=0.5, inplace=False)
      (3): Linear(in_features=128, out_features=1, bias=True)
    )
    (6): Sequential(
      (0): Linear(in_features=330, out_features=64, bias=True)
      (1): ReLU()
      (2): Dropout(p=0.5, inplace=False)
      (3): Linear(in_features=64, out_features=1, bias=True)
    )
    (7-8): 2 x Sequential(
      (0): Linear(in_features=330, out_features=128, bias=True)
      (1): ReLU()
      (2): Dropout(p=0.5, inplace=False)
      (3): Linear(in_features=128, out_features=1, bias=True)
    )
    (9): Sequential(
      (0): Linear(in_features=330, out_features=32, bias=True)
      (1): ReLU()
      (2): Dropout(p=0.5, inplace=False)
      (3): Linear(in_features=32, out_features=1, bias=True)
    )
  )
)
k折:5  num_epochs:100  learning_rate:1  batch_size:64  weight_decay:0
5-折验证: 平均训练log rmse: 0.104754, 平均验证log rmse: 0.156767 


block(
  (nets): ModuleList(
    (0-4): 5 x Sequential(
      (0): Linear(in_features=330, out_features=1, bias=True)
    )
    (5): Sequential(
      (0): Linear(in_features=330, out_features=128, bias=True)
      (1): ReLU()
      (2): Dropout(p=0.5, inplace=False)
      (3): Linear(in_features=128, out_features=1, bias=True)
    )
    (6-7): 2 x Sequential(
      (0): Linear(in_features=330, out_features=512, bias=True)
      (1): ReLU()
      (2): Dropout(p=0.5, inplace=False)
      (3): Linear(in_features=512, out_features=1, bias=True)
    )
    (8): Sequential(
      (0): Linear(in_features=330, out_features=32, bias=True)
      (1): ReLU()
      (2): Dropout(p=0.5, inplace=False)
      (3): Linear(in_features=32, out_features=1, bias=True)
    )
    (9): Sequential(
      (0): Linear(in_features=330, out_features=128, bias=True)
      (1): ReLU()
      (2): Dropout(p=0.5, inplace=False)
      (3): Linear(in_features=128, out_features=1, bias=True)
    )
  )
)
k折:5  num_epochs:100  learning_rate:0.1  batch_size:64  weight_decay:0
5-折验证: 平均训练log rmse: 0.109452, 平均验证log rmse: 0.147738 


block(
  (nets): ModuleList(
    (0-4): 5 x Sequential(
      (0): Linear(in_features=330, out_features=1, bias=True)
    )
    (5): Sequential(
      (0): Linear(in_features=330, out_features=32, bias=True)
      (1): ReLU()
      (2): Dropout(p=0.5, inplace=False)
      (3): Linear(in_features=32, out_features=1, bias=True)
    )
    (6): Sequential(
      (0): Linear(in_features=330, out_features=512, bias=True)
      (1): ReLU()
      (2): Dropout(p=0.5, inplace=False)
      (3): Linear(in_features=512, out_features=1, bias=True)
    )
    (7): Sequential(
      (0): Linear(in_features=330, out_features=64, bias=True)
      (1): ReLU()
      (2): Dropout(p=0.5, inplace=False)
      (3): Linear(in_features=64, out_features=1, bias=True)
    )
    (8): Sequential(
      (0): Linear(in_features=330, out_features=512, bias=True)
      (1): ReLU()
      (2): Dropout(p=0.5, inplace=False)
      (3): Linear(in_features=512, out_features=1, bias=True)
    )
    (9): Sequential(
      (0): Linear(in_features=330, out_features=64, bias=True)
      (1): ReLU()
      (2): Dropout(p=0.5, inplace=False)
      (3): Linear(in_features=64, out_features=1, bias=True)
    )
  )
  (final): Linear(in_features=10, out_features=1, bias=True)
)
k折:5  num_epochs:100  learning_rate:0.1  batch_size:64  weight_decay:0.001
5-折验证: 平均训练log rmse: 0.075035, 平均验证log rmse: 0.145779 


block(
  (nets): ModuleList(
    (0-4): 5 x Sequential(
      (0): Linear(in_features=330, out_features=1, bias=True)
    )
    (5-6): 2 x Sequential(
      (0): Linear(in_features=330, out_features=32, bias=True)
      (1): ReLU()
      (2): Dropout(p=0.5, inplace=False)
      (3): Linear(in_features=32, out_features=1, bias=True)
    )
    (7): Sequential(
      (0): Linear(in_features=330, out_features=128, bias=True)
      (1): ReLU()
      (2): Dropout(p=0.5, inplace=False)
      (3): Linear(in_features=128, out_features=1, bias=True)
    )
    (8-9): 2 x Sequential(
      (0): Linear(in_features=330, out_features=64, bias=True)
      (1): ReLU()
      (2): Dropout(p=0.5, inplace=False)
      (3): Linear(in_features=64, out_features=1, bias=True)
    )
  )
  (final): Sequential(
    (0): Dropout(p=0.2, inplace=False)
    (1): Linear(in_features=10, out_features=1, bias=True)
  )
)
k折:5  num_epochs:150  learning_rate:0.1  batch_size:64  weight_decay:0.01
5-折验证: 平均训练log rmse: 0.270055, 平均验证log rmse: 0.236665 


block(
  (nets): ModuleList(
    (0-4): 5 x Sequential(
      (0): Linear(in_features=330, out_features=1, bias=True)
    )
    (5-6): 2 x Sequential(
      (0): Linear(in_features=330, out_features=32, bias=True)
      (1): ReLU()
      (2): Dropout(p=0.5, inplace=False)
      (3): Linear(in_features=32, out_features=1, bias=True)
    )
    (7): Sequential(
      (0): Linear(in_features=330, out_features=128, bias=True)
      (1): ReLU()
      (2): Dropout(p=0.5, inplace=False)
      (3): Linear(in_features=128, out_features=1, bias=True)
    )
    (8-9): 2 x Sequential(
      (0): Linear(in_features=330, out_features=64, bias=True)
      (1): ReLU()
      (2): Dropout(p=0.5, inplace=False)
      (3): Linear(in_features=64, out_features=1, bias=True)
    )
  )
  (final): Sequential(
    (0): Linear(in_features=10, out_features=1, bias=True)
  )
)
k折:5  num_epochs:150  learning_rate:0.1  batch_size:64  weight_decay:0.01
5-折验证: 平均训练log rmse: 0.127191, 平均验证log rmse: 0.136537 


block(
  (nets): ModuleList(
    (0-4): 5 x Sequential(
      (0): Linear(in_features=330, out_features=1, bias=True)
    )
    (5-6): 2 x Sequential(
      (0): Linear(in_features=330, out_features=32, bias=True)
      (1): ReLU()
      (2): Dropout(p=0.5, inplace=False)
      (3): Linear(in_features=32, out_features=1, bias=True)
    )
    (7): Sequential(
      (0): Linear(in_features=330, out_features=128, bias=True)
      (1): ReLU()
      (2): Dropout(p=0.5, inplace=False)
      (3): Linear(in_features=128, out_features=1, bias=True)
    )
    (8-9): 2 x Sequential(
      (0): Linear(in_features=330, out_features=64, bias=True)
      (1): ReLU()
      (2): Dropout(p=0.5, inplace=False)
      (3): Linear(in_features=64, out_features=1, bias=True)
    )
  )
  (final): Sequential(
    (0): Linear(in_features=10, out_features=1, bias=True)
  )
)
k折:5  num_epochs:150  learning_rate:0.08  batch_size:64  weight_decay:0.01
5-折验证: 平均训练log rmse: 0.076210, 平均验证log rmse: 0.140065 


block(
  (nets): ModuleList(
    (0-5): 6 x Sequential(
      (0): Linear(in_features=330, out_features=1, bias=True)
    )
    (6-7): 2 x Sequential(
      (0): Linear(in_features=330, out_features=32, bias=True)
      (1): ReLU()
      (2): Dropout(p=0.6, inplace=False)
      (3): Linear(in_features=32, out_features=1, bias=True)
    )
    (8): Sequential(
      (0): Linear(in_features=330, out_features=128, bias=True)
      (1): ReLU()
      (2): Dropout(p=0.6, inplace=False)
      (3): Linear(in_features=128, out_features=1, bias=True)
    )
    (9): Sequential(
      (0): Linear(in_features=330, out_features=64, bias=True)
      (1): ReLU()
      (2): Dropout(p=0.6, inplace=False)
      (3): Linear(in_features=64, out_features=1, bias=True)
    )
  )
  (final): Sequential(
    (0): Linear(in_features=10, out_features=1, bias=True)
  )
)
k折:5  num_epochs:150  learning_rate:0.08  batch_size:64  weight_decay:0.01
5-折验证: 平均训练log rmse: 0.077262, 平均验证log rmse: 0.138462 


block(
  (nets): ModuleList(
    (0-5): 6 x Sequential(
      (0): Linear(in_features=330, out_features=1, bias=True)
    )
    (6-7): 2 x Sequential(
      (0): Linear(in_features=330, out_features=32, bias=True)
      (1): ReLU()
      (2): Dropout(p=0.6, inplace=False)
      (3): Linear(in_features=32, out_features=1, bias=True)
    )
    (8): Sequential(
      (0): Linear(in_features=330, out_features=128, bias=True)
      (1): ReLU()
      (2): Dropout(p=0.6, inplace=False)
      (3): Linear(in_features=128, out_features=1, bias=True)
    )
    (9): Sequential(
      (0): Linear(in_features=330, out_features=64, bias=True)
      (1): ReLU()
      (2): Dropout(p=0.6, inplace=False)
      (3): Linear(in_features=64, out_features=1, bias=True)
    )
  )
  (final): Sequential(
    (0): Linear(in_features=10, out_features=1, bias=True)
  )
)
k折:5  num_epochs:200  learning_rate:0.08  batch_size:64  weight_decay:0.01
5-折验证: 平均训练log rmse: 0.068964, 平均验证log rmse: 0.142011 


block(
  (nets): ModuleList(
    (0-7): 8 x Sequential(
      (0): Linear(in_features=330, out_features=1, bias=True)
    )
    (8-9): 2 x Sequential(
      (0): Linear(in_features=330, out_features=32, bias=True)
      (1): ReLU()
      (2): Dropout(p=0.6, inplace=False)
      (3): Linear(in_features=32, out_features=1, bias=True)
    )
    (10): Sequential(
      (0): Linear(in_features=330, out_features=128, bias=True)
      (1): ReLU()
      (2): Dropout(p=0.6, inplace=False)
      (3): Linear(in_features=128, out_features=1, bias=True)
    )
    (11-13): 3 x Sequential(
      (0): Linear(in_features=330, out_features=64, bias=True)
      (1): ReLU()
      (2): Dropout(p=0.6, inplace=False)
      (3): Linear(in_features=64, out_features=1, bias=True)
    )
  )
  (final): Sequential(
    (0): Linear(in_features=14, out_features=1, bias=True)
  )
)
k折:5  num_epochs:200  learning_rate:0.05  batch_size:64  weight_decay:0.01
5-折验证: 平均训练log rmse: 0.074564, 平均验证log rmse: 0.138031 


block(
  (nets): ModuleList(
    (0-7): 8 x Sequential(
      (0): Linear(in_features=330, out_features=1, bias=True)
    )
    (8-9): 2 x Sequential(
      (0): Linear(in_features=330, out_features=32, bias=True)
      (1): ReLU()
      (2): Dropout(p=0.6, inplace=False)
      (3): Linear(in_features=32, out_features=1, bias=True)
    )
    (10): Sequential(
      (0): Linear(in_features=330, out_features=128, bias=True)
      (1): ReLU()
      (2): Dropout(p=0.6, inplace=False)
      (3): Linear(in_features=128, out_features=1, bias=True)
    )
    (11-13): 3 x Sequential(
      (0): Linear(in_features=330, out_features=64, bias=True)
      (1): ReLU()
      (2): Dropout(p=0.6, inplace=False)
      (3): Linear(in_features=64, out_features=1, bias=True)
    )
  )
  (final): Sequential(
    (0): Linear(in_features=14, out_features=1, bias=True)
  )
)
k折:5  num_epochs:200  learning_rate:0.05  batch_size:64  weight_decay:0.01
5-折验证: 平均训练log rmse: 0.074761, 平均验证log rmse: 0.136357 

